…
xpect to be exactly identical (initializing a BertForSequenceClassification model from a BertForSequenceClassification model).\n","Some weights of ViTModel were not initialized from the model checkpoint at google/vit-base-patch16-224 and are newly initialized: ['vit.pooler.dense.bias', 'vit.pooler.dense.weight']\n","You should probably TRAIN this model on a down-stream task to be able to use it for predictions and inference.\n"]},{"output_type":"execute_result","data":{"text/plain":["ViTModel(\n","  (embeddings): ViTEmbeddings(\n","    (patch_embeddings): PatchEmbeddings(\n","      (projection): Conv2d(3, 768, kernel_size=(16, 16), stride=(16, 16))\n","    )\n","    (dropout): Dropout(p=0.0, inplace=False)\n","  )\n","  (encoder): ViTEncoder(\n","    (layer): ModuleList(\n","      (0): ViTLayer(\n","        (attention): ViTAttention(\n","          (attention): ViTSelfAttention(\n","            (query): Linear(in_features=768, out_features=768, bias=True)\n","            (key): Linear(in_features=768, out_features=768, bias=True)\n","            (value): Linear(in_features=768, out_features=768, bias=True)\n","            (dropout): Dropout(p=0.0, inplace=False)\n","          )\n","          (output): ViTSelfOutput(\n","            (dense): Linear(in_features=768, out_features=768, bias=True)\n","            (dropout): Dropout(p=0.0, inplace=False)\n","          )\n","        )\n","        (intermediate): ViTIntermediate(\n","          (dense): Linear(in_features=768, out_features=3072, bias=True)\n","        )\n","        (output): ViTOutput(\n","          (dense): Linear(in_features=3072, out_features=768, bias=True)\n","          (dropout): Dropout(p=0.0, inplace=False)\n","        )\n","        (layernorm_before): LayerNorm((768,), eps=1e-12, elementwise_affine=True)\n","        (layernorm_after): LayerNorm((768,), eps=1e-12, elementwise_affine=True)\n","      )\n","      (1): ViTLayer(\n","        (attention): ViTAttention(\n","          (attention): ViTSelfAttention(\n","            (query): Linear(in_features=768, out_features=768, bias=True)\n","            (key): Linear(in_features=768, out_features=768, bias=True)\n","            (value): Linear(in_features=768, out_features=768, bias=True)\n","            (dropout): Dropout(p=0.0, inplace=False)\n","          )\n","          (output): ViTSelfOutput(\n","            (dense): Linear(in_features=768, out_features=768, bias=True)\n","            (dropout): Dropout(p=0.0, inplace=False)\n","          )\n","        )\n","        (intermediate): ViTIntermediate(\n","          (dense): Linear(in_features=768, out_features=3072, bias=True)\n","        )\n","        (output): ViTOutput(\n","          (dense): Linear(in_features=3072, out_features=768, bias=True)\n","          (dropout): Dropout(p=0.0, inplace=False)\n","        )\n","        (layernorm_before): LayerNorm((768,), eps=1e-12, elementwise_affine=True)\n","        (layernorm_after): LayerNorm((768,), eps=1e-12, elementwise_affine=True)\n","      )\n","      (2): ViTLayer(\n","        (attention): ViTAttention(\n","          (attention): ViTSelfAttention(\n","            (query): Linear(in_features=768, out_features=768, bias=True)\n","            (key): Linear(in_features=768, out_features=768, bias=True)\n","            (value): Linear(in_features=768, out_features=768, bias=True)\n","            (dropout): Dropout(p=0.0, inplace=False)\n","          )\n","          (output): ViTSelfOutput(\n","            (dense): Linear(in_features=768, out_features=768, bias=True)\n","            (dropout): Dropout(p=0.0, inplace=False)\n","          )\n","        )\n","        (intermediate): ViTIntermediate(\n","          (dense): Linear(in_features=768, out_features=3072, bias=True)\n","        )\n","        (output): ViTOutput(\n","          (dense): Linear(in_features=3072, out_features=768, bias=True)\n","          (dropout): Dropout(p=0.0, inplace=False)\n","        )\n","        (layernorm_before): LayerNorm((768,), eps=1e-12, elementwise_affine=True)\n","        (layernorm_after): LayerNorm((768,), eps=1e-12, elementwise_affine=True)\n","      )\n","      (3): ViTLayer(\n","        (attention): ViTAttention(\n","          (attention): ViTSelfAttention(\n","            (query): Linear(in_features=768, out_features=768, bias=True)\n","            (key): Linear(in_features=768, out_features=768, bias=True)\n","            (value): Linear(in_features=768, out_features=768, bias=True)\n","            (dropout): Dropout(p=0.0, inplace=False)\n","          )\n","          (output): ViTSelfOutput(\n","            (dense): Linear(in_features=768, out_features=768, bias=True)\n","            (dropout): Dropout(p=0.0, inplace=False)\n","          )\n","        )\n","        (intermediate): ViTIntermediate(\n","          (dense): Linear(in_features=768, out_features=3072, bias=True)\n","        )\n","        (output): ViTOutput(\n","          (dense): Linear(in_features=3072, out_features=768, bias=True)\n","          (dropout): Dropout(p=0.0, inplace=False)\n","        )\n","        (layernorm_before): LayerNorm((768,), eps=1e-12, elementwise_affine=True)\n","        (layernorm_after): LayerNorm((768,), eps=1e-12, elementwise_affine=True)\n","      )\n","      (4): ViTLayer(\n","        (attention): ViTAttention(\n","          (attention): ViTSelfAttention(\n","            (query): Linear(in_features=768, out_features=768, bias=True)\n","            (key): Linear(in_features=768, out_features=768, bias=True)\n","            (value): Linear(in_features=768, out_features=768, bias=True)\n","            (dropout): Dropout(p=0.0, inplace=False)\n","          )\n","          (output): ViTSelfOutput(\n","            (dense): Linear(in_features=768, out_features=768, bias=True)\n","            (dropout): Dropout(p=0.0, inplace=False)\n","          )\n","        )\n","        (intermediate): ViTIntermediate(\n","          (dense): Linear(in_features=768, out_features=3072, bias=True)\n","        )\n","        (output): ViTOutput(\n","          (dense): Linear(in_features=3072, out_features=768, bias=True)\n","          (dropout): Dropout(p=0.0, inplace=False)\n","        )\n","        (layernorm_before): LayerNorm((768,), eps=1e-12, elementwise_affine=True)\n","        (layernorm_after): LayerNorm((768,), eps=1e-12, elementwise_affine=True)\n","      )\n","      (5): ViTLayer(\n","        (attention): ViTAttention(\n","          (attention): ViTSelfAttention(\n","            (query): Linear(in_features=768, out_features=768, bias=True)\n","            (key): Linear(in_features=768, out_features=768, bias=True)\n","            (value): Linear(in_features=768, out_features=768, bias=True)\n","            (dropout): Dropout(p=0.0, inplace=False)\n","          )\n","          (output): ViTSelfOutput(\n","            (dense): Linear(in_features=768, out_features=768, bias=True)\n","            (dropout): Dropout(p=0.0, inplace=False)\n","          )\n","        )\n","        (intermediate): ViTIntermediate(\n","          (dense): Linear(in_features=768, out_features=3072, bias=True)\n","        )\n","        (output): ViTOutput(\n","          (dense): Linear(in_features=3072, out_features=768, bias=True)\n","          (dropout): Dropout(p=0.0, inplace=False)\n","        )\n","        (layernorm_before): LayerNorm((768,), eps=1e-12, elementwise_affine=True)\n","        (layernorm_after): LayerNorm((768,), eps=1e-12, elementwise_affine=True)\n","      )\n","      (6): ViTLayer(\n","        (attention): ViTAttention(\n","          (attention): ViTSelfAttention(\n","            (query): Linear(in_features=768, out_features=768, bias=True)\n","            (key): Linear(in_features=768, out_features=768, bias=True)\n","            (value): Linear(in_features=768, out_features=768, bias=True)\n","            (dropout): Dropout(p=0.0, inplace=False)\n","          )\n","          (output): ViTSelfOutput(\n","            (dense): Linear(in_features=768, out_features=768, bias=True)\n","            (dropout): Dropout(p=0.0, inplace=False)\n","          )\n","        )\n","        (intermediate): ViTIntermediate(\n","          (dense): Linear(in_features=768, out_features=3072, bias=True)\n","        )\n","        (output): ViTOutput(\n","          (dense): Linear(in_features=3072, out_features=768, bias=True)\n","          (dropout): Dropout(p=0.0, inplace=False)\n","        )\n","        (layernorm_before): LayerNorm((768,), eps=1e-12, elementwise_affine=True)\n","        (layernorm_after): LayerNorm((768,), eps=1e-12, elementwise_affine=True)\n","      )\n","      (7): ViTLayer(\n","        (attention): ViTAttention(\n","          (attention): ViTSelfAttention(\n","            (query): Linear(in_features=768, out_features=768, bias=True)\n","            (key): Linear(in_features=768, out_features=768, bias=True)\n","            (value): Linear(in_features=768, out_features=768, bias=True)\n","            (dropout): Dropout(p=0.0, inplace=False)\n","          )\n","          (output): ViTSelfOutput(\n","            (dense): Linear(in_features=768, out_features=768, bias=True)\n","            (dropout): Dropout(p=0.0, inplace=False)\n","          )\n","        )\n","        (intermediate): ViTIntermediate(\n","          (dense): Linear(in_features=768, out_features=3072, bias=True)\n","        )\n","        (output): ViTOutput(\n","          (dense): Linear(in_features=3072, out_features=768, bias=True)\n","          (dropout): Dropout(p=0.0, inplace=False)\n","        )\n","        (layernorm_before): LayerNorm((768,), eps=1e-12, elementwise_affine=True)\n","        (layernorm_after): LayerNorm((768,), eps=1e-12, elementwise_affine=True)\n","      )\n","      (8): ViTLayer(\n","        (attention): ViTAttention(\n","          (attention): ViTSelfAttention(\n","            (query): Linear(in_features=768, out_features=768, bias=True)\n","            (key): Linear(in_features=768, out_features=768, bias=True)\n","            (value): Linear(in_features=768, out_features=768, bias=True)\n","            (dropout): Dropout(p=0.0, inplace=False)\n","          )\n","          (output): ViTSelfOutput(\n","            (dense): Linear(in_features=768, out_features=768, bias=True)\n","            (dropout): Dropout(p=0.0, inplace=False)\n","          )\n","        )\n","        (intermediate): ViTIntermediate(\n","          (dense): Linear(in_features=768, out_features=3072, bias=True)\n","        )\n","        (output): ViTOutput(\n","          (dense): Linear(in_features=3072, out_features=768, bias=True)\n","          (dropout): Dropout(p=0.0, inplace=False)\n","        )\n","        (layernorm_before): LayerNorm((768,), eps=1e-12, elementwise_affine=True)\n","        (layernorm_after): LayerNorm((768,), eps=1e-12, elementwise_affine=True)\n","      )\n","      (9): ViTLayer(\n","        (attention): ViTAttention(\n","          (attention): ViTSelfAttention(\n","            (query): Linear(in_features=768, out_features=768, bias=True)\n","            (key): Linear(in_features=768, out_features=768, bias=True)\n","            (value): Linear(in_features=768, out_features=768, bias=True)\n","            (dropout): Dropout(p=0.0, inplace=False)\n","          )\n","          (output): ViTSelfOutput(\n","            (dense): Linear(in_features=768, out_features=768, bias=True)\n","            (dropout): Dropout(p=0.0, inplace=False)\n","          )\n","        )\n","        (intermediate): ViTIntermediate(\n","          (dense): Linear(in_features=768, out_features=3072, bias=True)\n","        )\n","        (output): ViTOutput(\n","          (dense): Linear(in_features=3072, out_features=768, bias=True)\n","          (dropout): Dropout(p=0.0, inplace=False)\n","        )\n","        (layernorm_before): LayerNorm((768,), eps=1e-12, elementwise_affine=True)\n","        (layernorm_after): LayerNorm((768,), eps=1e-12, elementwise_affine=True)\n","      )\n","      (10): ViTLayer(\n","        (attention): ViTAttention(\n","          (attention): ViTSelfAttention(\n","            (query): Linear(in_features=768, out_features=768, bias=True)\n","            (key): Linear(in_features=768, out_features=768, bias=True)\n","            (value): Linear(in_features=768, out_features=768, bias=True)\n","            (dropout): Dropout(p=0.0, inplace=False)\n","          )\n","          (output): ViTSelfOutput(\n","            (dense): Linear(in_features=768, out_features=768, bias=True)\n","            (dropout): Dropout(p=0.0, inplace=False)\n","          )\n","        )\n","        (intermediate): ViTIntermediate(\n","          (dense): Linear(in_features=768, out_features=3072, bias=True)\n","        )\n","        (output): ViTOutput(\n","          (dense): Linear(in_features=3072, out_features=768, bias=True)\n","          (dropout): Dropout(p=0.0, inplace=False)\n","        )\n","        (layernorm_before): LayerNorm((768,), eps=1e-12, elementwise_affine=True)\n","        (layernorm_after): LayerNorm((768,), eps=1e-12, elementwise_affine=True)\n","      )\n","      (11): ViTLayer(\n","        (attention): ViTAttention(\n","          (attention): ViTSelfAttention(\n","            (query): Linear(in_features=768, out_features=768, bias=True)\n","            (key): Linear(in_features=768, out_features=768, bias=True)\n","            (value): Linear(in_features=768, out_features=768, bias=True)\n","            (dropout): Dropout(p=0.0, inplace=False)\n","          )\n","          (output): ViTSelfOutput(\n","            (dense): Linear(in_features=768, out_features=768, bias=True)\n","            (dropout): Dropout(p=0.0, inplace=False)\n","          )\n","        )\n","        (intermediate): ViTIntermediate(\n","          (dense): Linear(in_features=768, out_features=3072, bias=True)\n","        )\n","        (output): ViTOutput(\n","          (dense): Linear(in_features=3072, out_features=768, bias=True)\n","          (dropout): Dropout(p=0.0, inplace=False)\n","        )\n","        (layernorm_before): LayerNorm((768,), eps=1e-12, elementwise_affine=True)\n","        (layernorm_after): LayerNorm((768,), eps=1e-12, elementwise_affine=True)\n","      )\n","    )\n","  )\n","  (layernorm): LayerNorm((768,), eps=1e-12, elementwise_affine=True)\n","  (pooler): ViTPooler(\n","    (dense): Linear(in_features=768, out_features=768, bias=True)\n","    (activation): Tanh()\n","  )\n",")"]},"metadata":{},"execution_count":7}]},{"cell_type":"code","metadata":{"id":"T2DJ0aXcGiZX","executionInfo":{"status":"ok","timestamp":1638979820267,"user_tz":180,"elapsed":6,"user":{"displayName":"Leonardo Boulitreau","photoUrl":"https://lh3.googleusercontent.com/a-/AOh14GjTv0_6s_ZOXdgawFvihtlM8zNrLp1PmhJGvPA
…
